…
r":{"displayName":"Lakshit Bisht","userId":"15899071240763658350"}},"outputId":"e303a2c2-f6d3-4c62-f40a-0251ae3f7679"},"execution_count":27,"outputs":[{"output_type":"stream","name":"stdout","text":["Model: \"vgg19\"\n","_________________________________________________________________\n"," Layer (type)                Output Shape              Param #   \n","=================================================================\n"," input_5 (InputLayer)        [(None, 32, 32, 3)]       0         \n","                                                                 \n"," block1_conv1 (Conv2D)       (None, 32, 32, 64)        1792      \n","                                                                 \n"," block1_conv2 (Conv2D)       (None, 32, 32, 64)        36928     \n","                                                                 \n"," block1_pool (MaxPooling2D)  (None, 16, 16, 64)        0         \n","                                                                 \n"," block2_conv1 (Conv2D)       (None, 16, 16, 128)       73856     \n","                                                                 \n"," block2_conv2 (Conv2D)       (None, 16, 16, 128)       147584    \n","                                                                 \n"," block2_pool (MaxPooling2D)  (None, 8, 8, 128)         0         \n","                                                                 \n"," block3_conv1 (Conv2D)       (None, 8, 8, 256)         295168    \n","                                                                 \n"," block3_conv2 (Conv2D)       (None, 8, 8, 256)         590080    \n","                                                                 \n"," block3_conv3 (Conv2D)       (None, 8, 8, 256)         590080    \n","                                                                 \n"," block3_conv4 (Conv2D)       (None, 8, 8, 256)         590080    \n","                                                                 \n"," block3_pool (MaxPooling2D)  (None, 4, 4, 256)         0         \n","                                                                 \n"," block4_conv1 (Conv2D)       (None, 4, 4, 512)         1180160   \n","                                                                 \n"," block4_conv2 (Conv2D)       (None, 4, 4, 512)         2359808   \n","                                                                 \n"," block4_conv3 (Conv2D)       (None, 4, 4, 512)         2359808   \n","                                                                 \n"," block4_conv4 (Conv2D)       (None, 4, 4, 512)         2359808   \n","                                                                 \n"," block4_pool (MaxPooling2D)  (None, 2, 2, 512)         0         \n","                                                                 \n"," block5_conv1 (Conv2D)       (None, 2, 2, 512)         2359808   \n","                                                                 \n"," block5_conv2 (Conv2D)       (None, 2, 2, 512)         2359808   \n","                                                                 \n"," block5_conv3 (Conv2D)       (None, 2, 2, 512)         2359808   \n","                                                                 \n"," block5_conv4 (Conv2D)       (None, 2, 2, 512)         2359808   \n","                                                                 \n"," block5_pool (MaxPooling2D)  (None, 1, 1, 512)         0         \n","                                                                 \n","=================================================================\n","Total params: 20024384 (76.39 MB)\n","Trainable params: 20024384 (76.39 MB)\n","Non-trainable params: 0 (0.00 Byte)\n","_________________________________________________________________\n"]}]},{"cell_type":"code","source":["model = keras.models.S
…
